Model: "model_2"
__________________________________________________________________________________________________
Layer (type)                    Output Shape         Param #     Connected to                     
==================================================================================================
coord_input (InputLayer)        (None, 32, 25, 2)    0                                            
__________________________________________________________________________________________________
motion_input (InputLayer)       (None, 31, 25, 2)    0                                            
__________________________________________________________________________________________________
temporal_larm_seq (InputLayer)  (None, 32, 6)        0                                            
__________________________________________________________________________________________________
temporal_rarm_seq (InputLayer)  (None, 32, 6)        0                                            
__________________________________________________________________________________________________
temporal_trunk_seq (InputLayer) (None, 32, 6)        0                                            
__________________________________________________________________________________________________
temporal_lleg_seq (InputLayer)  (None, 32, 12)       0                                            
__________________________________________________________________________________________________
temporal_rleg_seq (InputLayer)  (None, 32, 12)       0                                            
__________________________________________________________________________________________________
spatial_seq (InputLayer)        (None, 37, 16)       0                                            
__________________________________________________________________________________________________
model_3 (Model)                 (None, 1)            91393       coord_input[0][0]                
                                                                 motion_input[0][0]               
__________________________________________________________________________________________________
model_1 (Model)                 (None, 1)            7162050     temporal_larm_seq[0][0]          
                                                                 temporal_rarm_seq[0][0]          
                                                                 temporal_trunk_seq[0][0]         
                                                                 temporal_lleg_seq[0][0]          
                                                                 temporal_rleg_seq[0][0]          
                                                                 spatial_seq[0][0]                
__________________________________________________________________________________________________
concatenate_3 (Concatenate)     (None, 2)            0           model_3[1][0]                    
                                                                 model_1[1][0]                    
__________________________________________________________________________________________________
dense_4 (Dense)                 (None, 128)          384         concatenate_3[0][0]              
__________________________________________________________________________________________________
dropout_3 (Dropout)             (None, 128)          0           dense_4[0][0]                    
__________________________________________________________________________________________________
dense_5 (Dense)                 (None, 64)           8256        dropout_3[0][0]                  
__________________________________________________________________________________________________
dropout_4 (Dropout)             (None, 64)           0           dense_5[0][0]                    
__________________________________________________________________________________________________
dense_6 (Dense)                 (None, 1)            65          dropout_4[0][0]                  
==================================================================================================
Total params: 7,262,148
Trainable params: 7,262,148
Non-trainable params: 0
__________________________________________________________________________________________________
Train on 8720 samples, validate on 920 samples
Epoch 1/100
8720/8720 [==============================] - 28s 3ms/step - loss: 0.4885 - acc: 0.9364 - val_loss: 0.4842 - val_acc: 0.8978
…
