…
WARNING:tensorflow:From /usr/local/lib/python3.6/dist-packages/keras/backend/tensorflow_backend.py:3733: calling dropout (from tensorflow.python.ops.nn_ops) with keep_prob is deprecated and will be removed in a future version.
Instructions for updating:
Please use `rate` instead of `keep_prob`. Rate should be set to `rate = 1 - keep_prob`.
Model: "model_1"
__________________________________________________________________________________________________
Layer (type)                    Output Shape         Param #     Connected to                     
==================================================================================================
temporal_larm_seq (InputLayer)  (None, 32, 6)        0                                            
__________________________________________________________________________________________________
temporal_rarm_seq (InputLayer)  (None, 32, 6)        0                                            
__________________________________________________________________________________________________
temporal_trunk_seq (InputLayer) (None, 32, 6)        0                                            
__________________________________________________________________________________________________
temporal_lleg_seq (InputLayer)  (None, 32, 12)       0                                            
__________________________________________________________________________________________________
temporal_rleg_seq (InputLayer)  (None, 32, 12)       0                                            
__________________________________________________________________________________________________
gru_1 (GRU)                     (None, 32, 64)       13632       temporal_larm_seq[0][0]          
__________________________________________________________________________________________________
gru_2 (GRU)                     (None, 32, 64)       13632       temporal_rarm_seq[0][0]          
__________________________________________________________________________________________________
gru_3 (GRU)                     (None, 32, 64)       13632       temporal_trunk_seq[0][0]         
__________________________________________________________________________________________________
gru_4 (GRU)                     (None, 32, 128)      54144       temporal_lleg_seq[0][0]          
__________________________________________________________________________________________________
gru_5 (GRU)                     (None, 32, 128)      54144       temporal_rleg_seq[0][0]          
__________________________________________________________________________________________________
spatial_seq (InputLayer)        (None, 37, 16)       0                                            
__________________________________________________________________________________________________
concatenate_1 (Concatenate)     (None, 32, 448)      0           gru_1[0][0]                      
                                                                 gru_2[0][0]                      
                                                                 gru_3[0][0]                      
                                                                 gru_4[0][0]                      
                                                                 gru_5[0][0]                      
__________________________________________________________________________________________________
gru_8 (GRU)                     (None, 37, 512)      812544      spatial_seq[0][0]                
__________________________________________________________________________________________________
gru_6 (GRU)                     (None, 32, 512)      1476096     concatenate_1[0][0]              
__________________________________________________________________________________________________
gru_9 (GRU)                     (None, 37, 512)      1574400     gru_8[0][0]                      
__________________________________________________________________________________________________
gru_7 (GRU)                     (None, 512)          1574400     gru_6[0][0]                      
__________________________________________________________________________________________________
gru_10 (GRU)                    (None, 512)          1574400     gru_9[0][0]                      
__________________________________________________________________________________________________
dense_1 (Dense)                 (None, 1)            513         gru_7[0][0]                      
__________________________________________________________________________________________________
dense_2 (Dense)                 (None, 1)            513         gru_10[0][0]                     
__________________________________________________________________________________________________
weighted_sum_1 (WeightedSum)    (None, 1)            0           dense_1[0][0]                    
                                                                 dense_2[0][0]                    
==================================================================================================
Total params: 7,162,050
Trainable params: 7,162,050
Non-trainable params: 0
__________________________________________________________________________________________________
…
